fire_detection_pytorch_model/fire_cnn_model.pth (torch, 41085 bytes, 12 tensors)

block_1.0.weight f4 [10, 3, 3, 3]
0	0x3e36ac21	0.178391
1	0x3e63582f	0.22201608
2	0x39d30583	0.00040249163
3	0x3e49251c	0.19643062
4	0xbc146600	-0.009057522
5	0x3d6a1290	0.05714661
6	0xbd904e35	-0.07046167
7	0x3e133ca1	0.14378597
8	0x3e3c320d	0.18378468
9	0xbe5056ac	-0.20345563
10	0x3e12ce23	0.14336447
11	0xbc5f9633	-0.01364665
12	0x3da926eb	0.08259376
13	0xbc376189	-0.011192688
14	0x3cf675d8	0.03008549
15	0xbd7560c0	-0.05990672
16	0x3e0a08b2	0.1347988
17	0xbc60105a	-0.0136757735
18	0xbe3f85ee	-0.18703434
19	0xbbb25138	-0.005441811
20	0xbe1412d0	-0.14460301
21	0xbdf63456	-0.12021701
22	0xbe1ecf37	-0.15508734
23	0x3d42ade7	0.047529127
24	0xbe5a99a8	-0.21347678
25	0xbe0a2a8b	-0.13492791
26	0xbde410b2	-0.11135997
27	0xbdf2dee1	-0.11858917
28	0x3d090dbb	0.03346036
29	0xbe2f1627	-0.17098294
30	0x3e44595f	0.19174717
31	0xbe07596f	-0.1321771
32	0x3e44506d	0.19171305
33	0x3d8c4f1c	0.068510264
34	0xbcc69421	-0.024240555
35	0x3e2a6c4f	0.16642879
36	0xbca8ca33	-0.020604229
37	0x3e075bea	0.13218656
38	0xbb30103a	-0.002686514
39	0xbdaee6cc	-0.08540115
40	0x3d5f1672	0.054464765
41	0xbd2a4c92	-0.04157693
42	0x3daaceec	0.083402485
43	0x3e45040f	0.1923983
44	0x3e0bf0f9	0.13666143
45	0xbe07d3e7	-0.13264428
46	0x3da05bc7	0.07830005
47	0x3b5f51f2	0.0034075943
48	0x3d729f6e	0.059234075
49	0xbe0f1b86	-0.13975343
50	0xbe4df792	-0.20113972
51	0xbdb7c9d0	-0.089740396
52	0xbe1fa759	-0.15591182
53	0x3e21865c	0.1577391
54	0x3e0e4e61	0.13897087
55	0x3df10f9a	0.11770554
56	0x3d317c99	0.043331716
57	0x3d55e3c4	0.052219167
58	0x3e263a38	0.16233146
59	0xbe38c4c5	-0.18043812
60	0x3ca63169	0.020287232
61	0xbe25fa6e	-0.16208813
62	0xbcc004ce	-0.023439791
63	0xbc6e24d6	-0.01453515
64	0x3d3de93f	0.04636502
65	0xbdf7108e	-0.120637044
66	0x3e4cab86	0.19987306
67	0xbe0f89c6	-0.140174
68	0xbe6353df	-0.22199963
69	0xbdcc410a	-0.09973343
70	0x3e01f714	0.12691909
71	0xbd900535	-0.07032243
72	0x3e71b075	0.2360247
73	0xbe15008b	-0.14550988
74	0xbe4a870a	-0.19778076
75	0xbde446b4	-0.11146298
76	0xbe0659ca	-0.1312019
77	0x3d34a7b0	0.04410523
78	0x3dbe9060	0.09304881
79	0x3e13d7a6	0.14437732
80	0xbe21c605	-0.15798195
81	0xbde27a70	-0.11058509
82	0x3dc41542	0.09574367
83	0xbdc1468d	-0.094372846
84	0x3df4928c	0.11942014
85	0xbd93f54b	-0.0722452
86	0x3da214d0	0.07914126
87	0xbe2ccfac	-0.16876096
88	0xbe11a14d	-0.14221688
89	0x3c65f9c2	0.014036598
90	0x3e28f8db	0.16501181
91	0x3d2f145a	0.04274402
92	0x3e44d4c9	0.19221796
93	0x3e75e2e6	0.24012336
94	0xbd8d355f	-0.06894945
95	0xbd371eae	-0.044706993
96	0x3e896ba8	0.26839948
97	0xbc3e4a89	-0.01161445
98	0xbcdb47ed	-0.026767695
99	0xbe11f0d4	-0.14252025
100	0xbdb1fc59	-0.086907096
101	0x3d91ea79	0.071248
102	0x3c155e34	0.009116698
103	0xbe0611a5	-0.13092668
104	0x3c7ced7f	0.015437483
105	0xbddbdbf7	-0.10735314
106	0xbe27dbb8	-0.1639241
107	0xbdd99ec9	-0.10625989
108	0xbe5564e6	-0.20839271
109	0xbe0d337e	-0.13789174
110	0x3e629632	0.22127607
111	0xbc707660	-0.01467666
112	0x3d20fa31	0.0393011
113	0xbe22fdae	-0.15917084
114	0xbe2ce4c0	-0.16884136
115	0xbd9ac6c9	-0.075574465
116	0x3d64dcd9	0.05587468
117	0xbe81d993	-0.25361308
118	0xbe1230f0	-0.1427648
119	0xbe029fa6	-0.12756214
120	0xbd85f80e	-0.06541453
121	0xbde4adf7	-0.11165994
122	0xbc4d8f3e	-0.012546359
123	0xbe309ea0	-0.1724801
124	0xbe1a1ea7	-0.15050755
125	0xbdc0e4e1	-0.09418655
126	0xbd69e98e	-0.0571075
127	0xbdf173b0	-0.11789644
128	0x3e5fc29b	0.2185158
129	0x3bf4c14b	0.0074693314
130	0x3e6f24ad	0.23353834
131	0x3e168996	0.14700922
132	0xbddd3051	-0.10800231
133	0x3e58fa21	0.21189167
134	0x3d32cc30	0.04365176
135	0xbde5d41a	-0.11222096
136	0xbe566da7	-0.20940267
137	0xbea831ee	-0.32850593
138	0x3d71f993	0.059075903
139	0xbd2c3a34	-0.042047694
140	0xbcb7acb7	-0.022421224
141	0xbe0d359a	-0.13789979
142	0x3e25596a	0.1614739
143	0xbe70f6b3	-0.23531608
144	0xbc77d66f	-0.015126809
145	0x3d7febad	0.062480617
146	0x3d5ef57a	0.054433323
147	0x3e53ac56	0.2067121
148	0x3e702e56	0.23455176
149	0xbe2f9276	-0.17145714
150	0x3ddd4149	0.10803468
151	0xbc65a1f5	-0.014015664
152	0xbd27d496	-0.040974222
153	0xbe39fbcf	-0.18162464
154	0x3e179d88	0.14806187
155	0xbe5ed399	-0.21760406
156	0x3de5352e	0.11191784
157	0x3db7a145	0.089663066
158	0x3cda3bd4	0.026639856
159	0xbdc22c16	-0.09481065
160	0x3e4b43c9	0.19850077
161	0x3a29055c	0.0006447637
162	0x3da85bd7	0.08220642
163	0xbdecb73d	-0.115583874
164	0x3ddad4d9	0.10685129
165	0x3d52d193	0.051469397
166	0xbc9cf7b9	-0.019161092
167	0x3e47f452	0.19526795
168	0x3e0c9b5d	0.13731141
169	0xbd020989	-0.031747375
170	0xbd87d691	-0.06632722
171	0xbc322dd9	-0.010875189
172	0x3dd533e7	0.1041029
173	0xbdad1cb7	-0.084527425
174	0xbdb7238b	-0.08942326
175	0xbd5e2c42	-0.054241426
176	0xbe34c57a	-0.17653456
177	0x3dd5b21d	0.10434363
178	0x3e2cbe92	0.16869572
179	0xbe59777d	-0.21236987
180	0x3da386e3	0.07984712
181	0x3e070011	0.13183619
182	0x3d2236e2	0.03960312
183	0xbc943a7b	-0.018094292
184	0x3e10b1b3	0.14130287
185	0x3dd017b1	0.10160769
186	0x3e0afdeb	0.13573425
187	0x3c6a770d	0.0143106105
188	0xbd4ebf92	-0.050475664
189	0x3cd8c7ee	0.026462521
190	0xbcb8e05b	-0.022567919
191	0xbd4f12e7	-0.050555136
192	0x3e2e0e3e	0.1699762
193	0x3e61eb63	0.22062449
194	0x3d1afd9e	0.037839524
195	0x3c7d2316	0.01545026
196	0x3d924595	0.07142178
197	0x3d5d5a8b	0.054041427
198	0xbcba109f	-0.022713004
199	0xbce6ddc4	-0.028181918
200	0xbe863232	-0.2621017
201	0xbd8e36c2	-0.06944038
202	0x3e1bca97	0.15214
203	0x3d8319df	0.06401419
204	0x3ba2a51f	0.0049635316
205	0xbde3b352	-0.11118187
206	0xbdfbea3c	-0.12300536
207	0xbea63438	-0.32461715
208	0xbe6aa9c3	-0.22916321
209	0xbdc914df	-0.09818434
210	0x3d6879a5	0.056756634
211	0x3bbad3fe	0.005701541
212	0xbe7da7be	-0.2477102
213	0xbe297697	-0.16549145
214	0xbdc90c44	-0.098167926
215	0x3ddfaa4d	0.10921154
216	0xbc8b92e5	-0.017037818
217	0xbdead167	-0.114657216
218	0x3d383801	0.044975284
219	0xbddc561b	-0.10758611
220	0xbe371874	-0.17880422
221	0x3de75709	0.112958975
222	0xbe27fd7b	-0.16405289
223	0xbe0a173e	-0.13485429
224	0xbe82bd64	-0.2553512
225	0x3e1b7e61	0.15184928
226	0x3e119ba8	0.14219534
227	0x3db29795	0.08720318
228	0xbdab10cf	-0.08352815
229	0xbe2d909d	-0.16949697
230	0xbdff6f49	-0.12472398
231	0x3e319f39	0.17345895
232	0x3dbbcc0c	0.09169778
233	0x3e3444e9	0.17604412
234	0x3d73528b	0.05940489
235	0xbc1829cf	-0.009287312
236	0xbd386960	-0.04502237
237	0xbe2978a7	-0.16549931
238	0xbe524c61	-0.20536949
239	0xbe5fc341	-0.21851827
240	0x3d0cd2f4	0.034380868
241	0xbe25a194	-0.16174918
242	0xbdcdd207	-0.10049825
243	0xbdf6a794	-0.12043682
244	0xbd579851	-0.052635495
245	0xbe0ab437	-0.13545309
246	0xbe1483b9	-0.14503373
247	0x3d20a220	0.039217114
248	0xbd6a45cc	-0.05719547
249	0x3dc18d41	0.0945077
250	0xbdb2beee	-0.08727823
251	0xbe109033	-0.14117508
252	0xbd2dcbf3	-0.04243083
253	0xbde1eff2	-0.11032094
254	0xbd712a90	-0.05887848
255	0xbe4eedca	-0.20207897

block_1.0.bias f4 [10]
0	0x3b6d4f53	0.003621061
1	0xbe812d5f	-0.25229928
2	0x3dec6725	0.11543111
3	0x3e2279a7	0.15866719
4	0x3e3851fa	0.18000022
5	0xbd356225	-0.04428305
6	0xbe29c0ab	-0.16577403
7	0x3da14ba2	0.07875754
8	0x3e05b6ef	0.13058065
9	0xbe5dafb5	-0.21649058

block_1.2.weight f4 [10, 10, 3, 3]
0	0xbc65434d	-0.013993097
1	0xbcb20033	-0.02172861
2	0x3d3165bc	0.043309912
3	0xbd4c5744	-0.04988791
4	0xbc2df427	-0.0106172925
5	0x3c27f679	0.010251635
6	0xbda0a8a0	-0.07844663
7	0x3dff275e	0.124586806
8	0x3e057c93	0.13035803
9	0x3d72576b	0.0591654
10	0x3d6a4e23	0.057203423
11	0xbb754790	-0.0037426688
12	0x3c764397	0.015030763
13	0x3c3443b9	0.011002474
14	0x3de0fc7d	0.10985658
15	0x3df94d64	0.12172964
16	0x3dc4d832	0.096115485
17	0x3ded0d39	0.11574788
18	0x3b0eb5aa	0.002177576
19	0xbd648f18	-0.055800527
20	0xbb9725b5	-0.0046126493
21	0x3bb127d2	0.0054063583
22	0xbdb55c90	-0.088555455
23	0xbdbb1994	-0.09135738
24	0xbd5a726a	-0.05333177
25	0x3d09c66a	0.033636488
26	0xbdd4803e	-0.10376023
27	0x3db4f6e0	0.0883615
28	0x3bda4f8b	0.0066623143
29	0x3d0a6990	0.03379208
30	0x3e1904f7	0.149433
31	0x3db62d23	0.08895328
32	0xbda17955	-0.078844704
33	0x3dcca414	0.09992233
34	0x3e1d5912	0.15366009
35	0x3d49710c	0.049180076
36	0x3c19cfa9	0.009387889
37	0x3d6f99a3	0.05849613
38	0xbd9baa30	-0.0760082
39	0xbd8c2ef8	-0.06844896
40	0xbe1712ca	-0.14753261
41	0xbde4e516	-0.11176507
42	0xbc774ca1	-0.015093953
43	0xbca696b4	-0.020335533
44	0xbe2b928c	-0.16755122
45	0x3e43555d	0.19075532
46	0x3e80753d	0.25089446
47	0x3e723461	0.23652793
48	0x3cd3f55b	0.02587383
49	0x3e104030	0.14086986
50	0x3e80cafb	0.25154862
51	0x3e824528	0.25443387
52	0x3e69d0ba	0.22833529
53	0x3e31de9c	0.17370075
54	0x3c9d260c	0.019183181
55	0xbe38d986	-0.18051729
56	0xbdd69004	-0.104766876
57	0x3d758624	0.05994238
58	0xbdd5fd18	-0.104486644
59	0xbd898930	-0.067156196
60	0xbba9f52a	-0.0051866965
61	0xbd79449e	-0.060856454
62	0xbd94ec61	-0.07271648
63	0xbe6600b2	-0.22461203
64	0xbe89dd7d	-0.26926795
65	0xbe5617b0	-0.20907474
66	0xbd0d4aa2	-0.034495004
67	0xbe7dafdb	-0.24774115
68	0xbe86fbc9	-0.26363972
69	0xbdc43494	-0.09580341
70	0xbe58c4d0	-0.21168828
71	0xbe7b33b9	-0.2453145
72	0x3dd972fb	0.10617634
73	0x3d5eb5bf	0.054372545
74	0xbdbab735	-0.09116975
75	0x3d2a6d1b	0.041607957
76	0x3d8e1214	0.06937042
77	0x3c7659ca	0.015036056
78	0x3af8574c	0.0018946915
79	0x3e12fc3a	0.1435403
80	0x3cd3520c	0.025795959
81	0xbd75d16f	-0.060014185
82	0xbdc2a045	-0.09503225
83	0x3b9a4960	0.004708454
84	0x3d3f5356	0.046710335
85	0x3cdbbf9a	0.026824761
86	0x3cbc937d	0.023019547
87	0xbda3b823	-0.07994106
88	0xbdc99b1a	-0.098440364
89	0x3b8cf800	0.004302025
90	0x3d973852	0.07383789
91	0xbc12be4f	-0.008956506
92	0xbe047d9c	-0.12938541
93	0xbd1527bc	-0.036414847
94	0xbe09e6ac	-0.134669
95	0xbdcb90c2	-0.0993972
96	0xbc18fde8	-0.00933788
97	0x3b16ddc8	0.0023020376
98	0x3d21801e	0.039428823
99	0xbdcc7857	-0.099838905
100	0x3dd0ce76	0.10195629
101	0xbd44c3b1	-0.04803819
102	0x3c86ffeb	0.016479453
103	0x3d94e9d0	0.07271159
104	0x3c5d721c	0.013515975
105	0x3dd30bef	0.103050105
106	0xbdad0007	-0.08447271
107	0xbd4285c6	-0.047490858
108	0x3d5dcb50	0.054148972
109	0xbd1f5761	-0.03890169
110	0xbd05a7b8	-0.032630652
111	0xbd3fc6d4	-0.046820477
112	0x3d678036	0.056518756
113	0x3cfdb315	0.030969182
114	0x3d0aeb64	0.033915892
115	0xbd88e755	-0.06684748
116	0xbdcaf24f	-0.09909498
117	0xbcdc994c	-0.026928566
118	0xbbc3eb19	-0.0059789536
119	0xbdaadd9a	-0.083430484
120	0xbd79fde3	-0.06103314
121	0x3d4f4848	0.050606042
122	0xbc28ff01	-0.010314704
123	0xbcb6792e	-0.02227458
124	0xbd389e8e	-0.045073085
125	0xbdece25c	-0.11566612
126	0x3cdecfd3	0.027198708
127	0x3d21017a	0.03930805
128	0x3d87ce7f	0.06631183
129	0x3de6b6c9	0.11265332
130	0x3ca1729d	0.019707972
131	0x3d2f112e	0.042740993
132	0x3e243625	0.1603628
133	0x3d93feca	0.072263315
134	0x3e19e7a5	0.15029772
135	0x3e68703a	0.22699061
136	0x3e6502b9	0.2236432
137	0x3eb9c58a	0.36283523
138	0x3e321724	0.1739164
139	0x3e0e38be	0.13888833
140	0x3e7e5bca	0.24839702
141	0x3db73486	0.08945565
142	0xbc218c78	-0.0098601505
143	0x3e2d2315	0.16907914
144	0x3d1060d7	0.035248604
145	0xbcb8d412	-0.02256206
146	0xbd489900	-0.048974037
147	0xbdca8567	-0.09888726
148	0xbd327b8c	-0.043574855
149	0x3c352683	0.011056545
150	0x3d5ad8c6	0.053429388
151	0x3bfe0ce0	0.0077529997
152	0xbd0cb28d	-0.034349967
153	0xbd184a10	-0.037180007
154	0xbe3199a5	-0.17343767
155	0x3b6aaee3	0.0035809807
156	0xbdf325f0	-0.118724704
157	0xbd88b57a	-0.06675239
158	0xbd8adeb1	-0.06780756
159	0xbe048eed	-0.12945147
160	0xbe2d82e1	-0.16944458
161	0xbcfbc894	-0.030735292
162	0xbbef2061	-0.007297561
163	0x3da59a80	0.08086109
164	0x3df52dcb	0.11971625
165	0xbcdf32ea	-0.027245957
166	0xbd4ba188	-0.049714595
167	0x3e09c7f3	0.13455181
168	0x3dfa2baa	0.122153595
169	0xbd2c1491	-0.0420118
170	0x3d49569d	0.049154866
171	0xbdd4e215	-0.10394684
172	0xbdbb5262	-0.09146573
173	0x3bcfa5d3	0.0063369065
174	0x3ce5b964	0.028042503
175	0x3c507075	0.012722124
176	0xbd00555f	-0.031331416
177	0x3dc72a15	0.097248234
178	0x39e17f6c	0.0004301028
179	0xbd959e69	-0.07305605
180	0x3da4d8b5	0.08049146
181	0x3e299fb5	0.1656483
182	0x3e303695	0.17208321
183	0xbc2da13e	-0.010597525
184	0x3e1aa999	0.15103759
185	0x3d543c65	0.05181541
186	0xbd4c010d	-0.04980569
187	0x3bdfbf30	0.0068282112
188	0x3e2411ca	0.16022411
189	0x3e34118a	0.17584816
190	0x3e62c6f2	0.22146204
191	0x3e26387f	0.16232489
192	0x3e506377	0.20350443
193	0x3e085d81	0.13316919
194	0x3d3db538	0.0463154
195	0x3e3e41c9	0.18579783
196	0x3dc90e2b	0.098171555
197	0x3d05e5de	0.03268992
198	0xbda395bf	-0.07987546
199	0x3c7fa932	0.015604304
200	0x3daf4471	0.08557976
201	0xbd7213ba	-0.059100844
202	0xbd002499	-0.031284902
203	0x3dbe8098	0.09301871
204	0xbd6a6d39	-0.05723307
205	0xbc91f542	-0.017817143
206	0x3e24f0c7	0.16107474
207	0xbcdd5345	-0.027017245
208	0x3dab0ac4	0.08351663
209	0x3debdcfe	0.1151676
210	0x3cb4fb95	0.02209262
211	0x3d19ffa3	0.03759731
212	0x3d774841	0.06037164
213	0x3af214b5	0.0018469306
214	0x3b1b3266	0.0023681163
215	0x3d2592ad	0.040423084
216	0x3da76768	0.0817402
217	0x3dde47a3	0.10853507
218	0xbc32a806	-0.010904318
219	0x3afa3e71	0.0019092095
220	0x3b47c12f	0.0030480137
221	0xbc7dc1f4	-0.015488137
222	0x3dab0f81	0.083525665
223	0x3e08a677	0.13344751
224	0x3e0fc2f6	0.14039215
225	0x3e64c709	0.22341551
226	0x3de0fc3a	0.109856084
227	0x3e12ab6f	0.14323209
228	0x3e4c7c13	0.19969206
229	0x3e54f0a5	0.20794924
230	0x3e85c756	0.26128644
231	0x3d2980b4	0.041382506
232	0x3e3b1630	0.18270183
233	0x3e0e2ddc	0.13884681
234	0xbd8c7070	-0.06857383
235	0xbd2d7097	-0.042343702
236	0x3e2cc8a6	0.16873416
237	0xbdb002db	-0.08594295
238	0x3e0b9aba	0.13633242
239	0x3d93aa1d	0.07210181
240	0x3c8b9262	0.017037574
241	0x3e04f0d3	0.12982492
242	0x3d62b030	0.055343807
243	0xbcd65c96	-0.026167195
244	0x3dafc6e6	0.08582859
245	0xbd0a8021	-0.0338136
246	0xbdc77de4	-0.097408086
247	0xbd210990	-0.03931576
248	0x3ca64e59	0.020301031
249	0xbe23732e	-0.15961906
250	0xbdb940a1	-0.0904553
251	0xbdd9dc85	-0.10637764
252	0x3da2fcec	0.07958397
253	0x3e463ba5	0.1935869
254	0x3e2a79e7	0.16648065
255	0x3df50b97	0.11965101

block_1.2.bias f4 [10]
0	0x3b0ed274	0.002179292
1	0x3c993c13	0.018705403
2	0xbde03834	-0.1094822
3	0xbdf4be6f	-0.11950385
4	0x3cdbea3b	0.026845088
5	0xbcfc1065	-0.030769536
6	0xbc83ac50	-0.016073376
7	0xbda1f145	-0.07907347
8	0x3dba7349	0.0910402
9	0x3d8aa0ed	0.067689754

block_1.4.weight f4 [10, 10, 3, 3]
0	0x3d87150b	0.065958105
1	0x3e4ea6a7	0.2018076
2	0x3e2d40af	0.16919206
3	0x3a7100f8	0.0009193565
4	0x3c39b7d2	0.01133533
5	0xbc958f3d	-0.018256778
6	0xbc205cc4	-0.009787742
7	0x3d1dd5b7	0.038533892
8	0x3d579118	0.052628607
9	0x3c815d20	0.015791476
10	0xbba09b44	-0.0049013216
11	0x3c354992	0.011064904
12	0xbd19dcfb	-0.03756426
13	0x3df6f363	0.12058141
14	0xbcd6c178	-0.0262153
15	0xbe01043d	-0.12599273
16	0x3c909f21	0.017654004
17	0xbd121d65	-0.035672564
18	0x3dfaa710	0.12238896
19	0x3e29c6e1	0.16579773
20	0x3e6b5390	0.22981095
21	0xbc8d10e1	-0.017219963
22	0x3e454aaf	0.19266771
23	0x3e66afb1	0.22527958
24	0x3cc64669	0.024203496
25	0x3e674288	0.22583973
26	0x3e5305fa	0.20607749
27	0x3b581cd2	0.0032976163
28	0x3d881727	0.06645041
29	0xbcf02dc6	-0.029318701
30	0xbdcb7624	-0.09934643
31	0x3d6905c5	0.056890268
32	0x3d0b3944	0.03399016
33	0xbd85e94c	-0.065386385
34	0x3d3fef03	0.0468588
35	0xbdafd86e	-0.085862026
36	0x3dae6e20	0.085170984
37	0x3de94cef	0.11391627
38	0x3d1959d2	0.037439175
39	0xbd844178	-0.064578
40	0x3d8b7d7a	0.06811042
41	0x3cdae100	0.026718616
42	0x3d1d914c	0.038468644
43	0x3d63e952	0.055642433
44	0x3dc390f8	0.09549135
45	0x3d7358bb	0.05941079
46	0x3e05c1a7	0.13062154
47	0x3e38a6f3	0.18032436
48	0x3df9c58c	0.12195882
49	0x3e7fc4e4	0.24977452
50	0x3dcbfa34	0.09959832
51	0x3e01f397	0.12690578
52	0x3e4919d5	0.1963876
53	0x3de24180	0.110476494
54	0x3e251d1f	0.1612439
55	0x3de6e5ba	0.112742856
56	0x3b2b5867	0.0026145221
57	0x3d60cc6e	0.05488246
58	0x3d1a4ec3	0.03767277
59	0x3db3d2ef	0.08780467
60	0x3b1e8440	0.0024187714
61	0xbd4b317c	-0.04960774
62	0x3cf00438	0.029298887
63	0x3da4c933	0.08046188
64	0x3d8f0096	0.06982534
65	0x3e2b7a5c	0.16745895
66	0x3d852e49	0.06502969
67	0x3e28e3df	0.16493176
68	0x3dac5b9a	0.08415909
69	0xbae45a2d	-0.0017421894
70	0x3dea52e6	0.11441593
71	0x3e025c57	0.12730537
72	0xbe02bdf5	-0.12767775
73	0xbdca5c3e	-0.09880875
74	0x3db7b51b	0.0897009
75	0x3e09c22a	0.13452974
76	0xbb1ce54b	-0.002394038
77	0x3e0cd536	0.13753209
78	0x3d745c27	0.059658196
79	0xbd39eb02	-0.045390137
80	0x3daccc88	0.08437449
81	0x3decc484	0.1156092
82	0x3d708a56	0.058725677
83	0x3df1cc88	0.11806589
84	0xbd12eabd	-0.035868395
85	0x3e182a3d	0.14859863
86	0x3e0eb7f0	0.13937354
87	0x3db89554	0.09012857
88	0x3d802685	0.06257347
89	0x3d2979a4	0.04137577
90	0xbe718a45	-0.23587902
91	0xbe1bc460	-0.1521163
92	0xbd2f2db7	-0.042768206
93	0xbe6431e6	-0.2228466
94	0xbe587468	-0.21138155
95	0x3d300fec	0.042983934
96	0xbd38a137	-0.04507562
97	0xbe284ab1	-0.16434743
98	0x3d19bc2a	0.037532963
99	0x3d27aca1	0.040936116
100	0x3dcef8f5	0.101060785
101	0x3dbb768f	0.09153473
102	0x3d9d87c4	0.07691911
103	0xbd647089	-0.055771384
104	0x3da03bfc	0.07823941
105	0x3d934567	0.07190972
106	0xbdc783be	-0.09741925
107	0xbd4069dd	-0.04697596
108	0x3de180d3	0.110108994
109	0x3e2deb72	0.16984347
110	0x3d605010	0.054763854
111	0x3dc560ba	0.0963759
112	0x3ddb0770	0.10694778
113	0x3dfdbead	0.12389884
114	0x3c82f751	0.01598707
115	0x3e1c37e8	0.15255702
116	0x3e1d289f	0.15347527
117	0xbd3fc823	-0.046821725
118	0x3d1e6d2d	0.038678337
119	0x3cd87adb	0.02642577
120	0x3d94b3cb	0.07260855
121	0x3dfc8792	0.123305455
122	0x3d68583f	0.056724783
123	0xbcc43584	-0.0239513
124	0x3dc1e325	0.094671525
125	0xbcd0b666	-0.0254776
126	0xbdb50f09	-0.08840758
127	0xbd5c21e9	-0.053743277
128	0xbe0a9e11	-0.1353686
129	0xbd41baa0	-0.04729712
130	0xbe06a195	-0.13147576
131	0xbd3dd58d	-0.046346236
132	0xbd2c6fe9	-0.042098913
133	0xbcf11b7b	-0.029432049
134	0xbdf472d5	-0.11935965
135	0xbd454898	-0.048164934
136	0x3df5ec31	0.120079406
137	0x3e30d6d6	0.17269453
138	0xbd3cd327	-0.046099808
139	0x3de26c94	0.11055866
140	0xbc54a5eb	-0.012979011
141	0x3d4b17f1	0.04958338
142	0x3e2608da	0.16214314
143	0x3e1af890	0.15133882
144	0xbccc80bd	-0.024963731
145	0x3d8ad9ff	0.06779861
146	0x3db93b45	0.09044508
147	0x3d50b24a	0.05095128
148	0x3dd7dc84	0.10540107
149	0xbba58eb3	-0.0050524115
150	0xbd585619	-0.052816484
151	0xbe087ae8	-0.13328135
152	0xbc06ec78	-0.0082350895
153	0x3e62417b	0.22095291
154	0x3e006c93	0.12541418
155	0x3daf7cac	0.08568701
156	0x3e0d7098	0.13812482
157	0x3e124efd	0.14287944
158	0x3c7a03a1	0.015259654
159	0x3e2214a7	0.1582819
160	0x3dbbf6ee	0.091779575
161	0x3d25af6b	0.040450495
162	0x3e1ba268	0.15198672
163	0x3dbabeea	0.09118445
164	0x3e0117f0	0.12606788
165	0xbe524096	-0.2053245
166	0xbea06f05	-0.313347
167	0xbe5c4a69	-0.2151276
168	0xbe045b40	-0.12925434
169	0xbe3651fd	-0.17804714
170	0xbe5aa0c4	-0.2135039
171	0xbc8e642b	-0.017381748
172	0xbe14f571	-0.14546753
173	0x3cf9347b	0.030420532
174	0x3bbe6a37	0.0058110016
175	0xbe20e338	-0.15711677
176	0xbdaa126f	-0.08304297
177	0xbdf8fa1b	-0.12157079
178	0x3d020190	0.03173977
179	0x3da28202	0.07934953
180	0xbe02f297	-0.12787853
181	0x3d8ce36c	0.06879315
182	0xbe17dd15	-0.1483043
183	0xbe799ad5	-0.2437547
184	0xbb06fbbe	-0.0020596827
185	0xbdbbc87a	-0.09169097
186	0xbd04024b	-0.03222875
187	0xbcebe837	-0.028797252
188	0xbd4c223c	-0.049837336
189	0x3dcfdcce	0.10149537
190	0x3dfa6b0e	0.1222745
191	0xbd966368	-0.07343179
192	0x3db1c0d4	0.08679357
193	0xbd988b19	-0.07448406
194	0x3db6fbd2	0.0893475
195	0x3d3e81ab	0.04651038
196	0xbc5e5233	-0.0135694025
197	0x3dac4dba	0.08413263
198	0x3e229710	0.15877938
199	0x3d4405e9	0.0478572
200	0x3dc21479	0.09476561
201	0x3e45e759	0.19326533
202	0x3e5876b3	0.2113903
203	0x3dc54911	0.09633077
204	0x3e6d7a8a	0.23191276
205	0x3e189ea6	0.1490427
206	0x3df87c9f	0.121331446
207	0x3cc86974	0.024464346
208	0xbd885d11	-0.06658376
209	0xbdb445a8	-0.088023484
210	0xbc40aa16	-0.011759302
211	0xbdbd2c14	-0.09236923
212	0xbca74698	-0.020419404
213	0x3c7de77a	0.015497083
214	0xbd8f03c7	-0.06983142
215	0xbd3198e5	-0.043358702
216	0xbe4c6889	-0.19961752
217	0xbe55d414	-0.20881683
218	0xbe7673f4	-0.2406767
219	0xbe193a0b	-0.14963548
220	0xbe4cfef2	-0.20019129
221	0xbe23a036	-0.15979084
222	0xbdc6e8fc	-0.09712407
223	0xbe4c4cd2	-0.1995118
224	0xbe47f6bc	-0.19527715
225	0x3d629c6f	0.055324968
226	0xbd78ddc8	-0.060758382
227	0x3c5b865f	0.013398736
228	0x3d6c8c2b	0.057750862
229	0x3d3df03c	0.046371683
230	0x3cd1975d	0.025584871
231	0x3e13f798	0.14449918
232	0x3cdbae0d	0.026816392
233	0xbd460c57	-0.048351612
234	0x3c903dd2	0.017607603
235	0xbe088c44	-0.13334757
236	0x3d589d62	0.052884467
237	0xbdce277c	-0.10066125
238	0xbdf8d1cf	-0.12149393
239	0xbb20ea21	-0.0024553614
240	0x3d3415ba	0.043966033
241	0x3cd1d3df	0.025613723
242	0x3d9d32f4	0.07675734
243	0x3e191a85	0.14951523
244	0xbddc18c0	-0.10746908
245	0xbca03509	-0.01955654
246	0x3de594fc	0.11210057
247	0x3cc7e564	0.024401374
248	0xbe28b713	-0.16476087
249	0x3cd3ce32	0.025855158
250	0xbe35e487	-0.17762958
251	0xbe2c48e8	-0.16824687
252	0xbdc49565	-0.09598807
253	0xbcceb4ed	-0.025232757
254	0xbe3e3bb1	-0.18577458
255	0x3df0be27	0.11755019

block_1.4.bias f4 [10]
0	0xbc3be7f9	-0.011468881
1	0xbdae5a29	-0.085132904
2	0x3dcd12d3	0.10013356
3	0x3ab8fd95	0.0014113659
4	0xbdc04854	-0.093887955
5	0xbd9ee71f	-0.077589266
6	0xbd25d907	-0.040490177
7	0xbad9299a	-0.0016568184
8	0xbd1fd3fa	-0.039020516
9	0xbde934d6	-0.11387031

block_2.0.weight f4 [10, 10, 3, 3]
0	0x3d1f768e	0.038931422
1	0x39bd10a6	0.00036061293
2	0x3ca9d24e	0.020730164
3	0xbd608699	-0.054815862
4	0x3cc9945d	0.024606878
5	0x3df4b470	0.11948478
6	0xbd022e5b	-0.03178249
7	0x3df1456f	0.117808215
8	0x3d200871	0.03907055
9	0xbe05fe69	-0.13085331
10	0x3d2e85af	0.04260796
11	0x3d8e0925	0.06935338
12	0xbdc3387d	-0.09532259
13	0x3d92a63a	0.071606115
14	0x3e275a46	0.1634303
15	0xbd86f65f	-0.0658996
16	0x3da46fbf	0.080291264
17	0x3e025e67	0.12731324
18	0xbe220e36	-0.15825734
19	0xbdd52498	-0.1040737
20	0xbc4f06a0	-0.012635857
21	0xbe1e4c3f	-0.15458773
22	0xbc67d10c	-0.014148962
23	0x3da5601b	0.08074971
24	0xbe1a4161	-0.15064003
25	0xbe02701e	-0.12738082
26	0x3d4a4b3f	0.049388167
27	0xbde62b6d	-0.112387516
28	0x3d98804f	0.07446348
29	0x3d867d22	0.06566836
30	0x3d58f58f	0.052968558
31	0x3c30c43f	0.010788976
32	0xbd6633e1	-0.05620182
33	0x3d39d95f	0.045373317
34	0xbd2b2957	-0.04178747
35	0x3cdf1650	0.02723232
36	0x3d7f63fe	0.06235122
37	0xbe00e1e9	-0.12586178
38	0xbc9f9c48	-0.0194837
39	0xbc5641da	-0.013077224
40	0x3dca052c	0.09864268
41	0xbd56197a	-0.05227039
42	0x3d8315f7	0.06400674
43	0x3d8697f1	0.06571949
44	0x3d6e6fc3	0.058212053
45	0x3dbc169a	0.091839984
46	0x3d32612b	0.043549698
47	0xbdaaf2a4	-0.08347061
48	0x3db0a0b1	0.086243995
49	0x3d516706	0.05112364
50	0x3cdc5a31	0.026898475
51	0xbdcce277	-0.10004132
52	0xbd1c6c34	-0.038189128
53	0xbd0473d8	-0.03233704
54	0x3d252a47	0.040323522
55	0x3d57cadd	0.0526837
56	0x3dba95fc	0.091106385
57	0x3d38dec9	0.04513434
58	0xbd53649a	-0.051609613
59	0xbb90cc11	-0.004418858
60	0xbd9ac7e8	-0.0755766
61	0xbd252477	-0.04031798
62	0x3ddc4101	0.10754586
63	0x3c3ef98e	0.011656178
64	0x3ddb5a63	0.10710599
65	0x3d85bd1f	0.065302126
66	0xbdc2df4c	-0.09515247
67	0x3cbf1b9f	0.0233286
68	0x3e2c1b98	0.16807401
69	0x3d08af2c	0.033370182
70	0x3d83ab13	0.06429114
71	0x3d16ba3f	0.036798712
72	0xbd9cd02a	-0.07656892
73	0xbd741ee4	-0.059599772
74	0x3d64dc41	0.055874113
75	0xbd0408d5	-0.032234985
76	0x3d881844	0.06645253
77	0x3d0f2c33	0.03495426
78	0xbcee2e9b	-0.029074958
79	0x3d7d5661	0.061849955
80	0xbd60f1ff	-0.054918285
81	0x3c035fcd	0.008018446
82	0xbcd8bbae	-0.02645668
83	0xbdaa4fc0	-0.08315992
84	0x3d43be1c	0.047788724
85	0x3d6aed9f	0.05735552
86	0xbc3a0653	-0.011354047
87	0x3de19266	0.110142514
88	0xbd608e11	-0.054822985
89	0xbd4a11b4	-0.04933329
90	0xbe0c1fba	-0.13683978
91	0xbda95e47	-0.08269935
92	0xbcdecd69	-0.027197557
93	0xbd56bf43	-0.052428495
94	0x3d321d55	0.043485004
95	0xbd9f58ba	-0.07780595
96	0x3ad2edc9	0.0016092594
97	0x3cb1f3a2	0.021722618
98	0x3d7a7e0b	0.06115536
99	0x3e0ab16e	0.13544247
100	0x3e15dde7	0.1463543
101	0x3cc7a203	0.024369245
102	0xbbad40c7	-0.005287263
103	0x3dd5ce79	0.10439772
104	0x3db37d52	0.08764137
105	0x3e19be10	0.1501391
106	0x3e2d4432	0.16920546
107	0x3e776f9b	0.24163668
108	0x3cc80a7a	0.024419058
109	0xbbcfdc10	-0.006343372
110	0x3cde9dad	0.027174795
111	0x3d7cc7af	0.06171387
112	0x3d83649d	0.06415675
113	0x3e22deac	0.15905255
114	0xbcf606ef	-0.030032603
115	0x3e2585d7	0.16164337
116	0x3ce0fff6	0.027465802
117	0xbe10c8a7	-0.14139043
118	0xbd2fadb3	-0.04289026
119	0x3d61cf64	0.055129424
120	0x3d4fb4d5	0.050709564
121	0x3d17da96	0.037073694
122	0x3cb2168a	0.021739263
123	0xbc9c3625	-0.019068787
124	0xbc756c43	-0.014979425
125	0x3d0de9e7	0.034646895
126	0xbc4b72e1	-0.012417526
127	0x3db596d3	0.08866658
128	0x3d7b538d	0.061358977
129	0xbd7b48b2	-0.061348625
130	0x3ca4bb18	0.020108745
131	0xbd373dff	-0.04473686
132	0xbc891324	-0.01673276
133	0xbdab92b5	-0.083775915
134	0x3ce07acc	0.027402304
135	0xbd84c3ef	-0.06482684
136	0x3d96347c	0.07334229
137	0x3d73a731	0.059485618
138	0xbd26037e	-0.040530674
139	0xbe14d8ea	-0.14535871
140	0xbbae5d9f	-0.005321219
141	0xbd141769	-0.03615514
142	0x3d30e2f1	0.04318518
143	0xbda06527	-0.07831793
144	0x3c7f4a48	0.015581675
145	0xbdf431be	-0.1192355
146	0xbd8fc63b	-0.07020231
147	0xbd8f834f	-0.07007467
148	0x3d1a6988	0.0376983
149	0xbb466b1a	-0.003027624
150	0xbdd18de1	-0.102321394
151	0xbd65bb4f	-0.056086835
152	0xbd055e41	-0.03256059
153	0xbe7e1d2a	-0.24815813
154	0xbdb31453	-0.08744111
155	0xbc88a087	-0.016678108
156	0xbdce83ed	-0.100837566
157	0xbd963d0a	-0.07335861
158	0x3a2967cc	0.00064623053
159	0xbe12bdf7	-0.14330278
160	0xbd7d1076	-0.061783276
161	0x3cd1cf5d	0.025611574
162	0x3dc5c87c	0.0965738
163	0xbcdf2660	-0.027239978
164	0x3d586f24	0.052840367
165	0xbd22d841	-0.039757017
166	0xbd03743d	-0.032093275
167	0xbdcb926f	-0.09940039
168	0x3db4b7d2	0.088241234
169	0x3dd575a6	0.1042283
170	0xbba86f4a	-0.00514022
171	0x3da9210c	0.08258256
172	0x3da3d51e	0.07999633
173	0x3dc43f20	0.09582353
174	0x3da3b84a	0.07994135
175	0xbdcf4773	-0.1012105
176	0xbd687ae9	-0.05675784
177	0xbd2132d5	-0.039355118
178	0x3d1fdc7e	0.039028637
179	0xbd6f567a	-0.05843208
180	0xbd6ec895	-0.05829676
181	0xbd912147	-0.07086425
182	0xbe21ac1f	-0.15788315
183	0x3d4e6897	0.050392713
184	0x3c9055fe	0.01761913
185	0xbdd09bde	-0.10185979
186	0x3e055f9a	0.1302475
187	0xbd01df80	-0.031707287
188	0xbda0e4d3	-0.07856145
189	0x3e5cb16f	0.2155206
190	0x3d0a254b	0.03372697
191	0xbe3b2dab	-0.1827914
192	0x3e0580cd	0.13037415
193	0xbd1929c7	-0.037393358
194	0xbdc63aea	-0.09679206
195	0x3ea942f2	0.33058888
196	0x3e02cb47	0.12772857
197	0xbdddbefd	-0.10827444
198	0xbc86ae87	-0.016440643
199	0xbdb323c6	-0.087470576
200	0xbe01a2fc	-0.1265983
201	0x3e041220	0.12897539
202	0x3c006e6e	0.0078388285
203	0xbe06fcda	-0.13182393
204	0x3e5032be	0.20331857
205	0x3d376ad9	0.044779632
206	0xbd763bb8	-0.060115546
207	0xbd891c78	-0.06694883
208	0xbcf56853	-0.029956972
209	0x3d8e557a	0.06949897
210	0x3da27d21	0.07934023
211	0xbacb8d6f	-0.0015529821
212	0x3c230f59	0.00995239
213	0x3dae72a2	0.08517958
214	0x3c51ed4f	0.012812926
215	0xbdd99b49	-0.106253214
216	0xbd8052ad	-0.06265769
217	0xbd92a84d	-0.07161007
218	0xbb2f6975	-0.0026765738
219	0xbddb0116	-0.106935665
220	0xbd23f6c8	-0.04003027
221	0xbd84934e	-0.06473409
222	0x3dd3db3b	0.10344549
223	0x3daf7891	0.08567918
224	0x3d7ac98a	0.06122736
225	0x3c48dfe9	0.012260416
226	0xbcc6b4a8	-0.024256065
227	0x3cdc4356	0.026887577
228	0xbd50fea7	-0.051024105
229	0xbd56f643	-0.052480947
230	0xbcffeb0c	-0.031240009
231	0xbce5ff7c	-0.028075926
232	0xbdbbf9e0	-0.09178519
233	0x3d57692c	0.052590534
234	0x3e0fb104	0.1403237
235	0xbd36c8e5	-0.04462518
236	0x380fd8a1	3.429561e-05
237	0x3d753221	0.05986226
238	0x3cc38508	0.023867145
239	0x3b41f76e	0.0029596942
240	0x3e2a5ee4	0.1663776
241	0x3d33976e	0.043845586
242	0xbd9350fb	-0.0719318
243	0xbda08fc7	-0.07839923
244	0xbd9fc38b	-0.07800969
245	0xbe17deb8	-0.14831054
246	0x3bf3fee6	0.0074461577
247	0xbdd15542	-0.1022134
248	0xbe560e5b	-0.20903914
249	0x3b52677f	0.0032105146
250	0xbdf0f0fa	-0.11764713
251	0xbe2021ad	-0.15637846
252	0x3c079605	0.008275514
253	0x3da5b978	0.08092016
254	0xbbeb1e37	-0.0071752327
255	0x3c93922b	0.018014034

block_2.0.bias f4 [10]
0	0x3c7055dc	0.014668908
1	0x3e07d14f	0.13263439
2	0x3d99f95b	0.07518264
3	0xbd830c78	-0.063988626
4	0x3a8c0e51	0.0010685419
5	0xbd404e11	-0.04694945
6	0xbd314912	-0.043282576
7	0x3d5c4966	0.053780936
8	0xbd81a848	-0.06330925
9	0xbd013409	-0.031543765

block_2.2.weight f4 [10, 10, 3, 3]
0	0xbdde1111	-0.10843099
1	0x3d5019d3	0.050805878
2	0xbca0e672	-0.019641135
3	0x3dc58707	0.09644895
4	0x3c9b4008	0.01895143
5	0xbde1c3f5	-0.11023704
6	0x3d046ebd	0.03233217
7	0x3dd6319a	0.104586795
8	0x3d86f9de	0.06590627
9	0xbc21b4e9	-0.0098697925
10	0xbdfbdc7f	-0.12297916
11	0xbe136936	-0.14395604
12	0x3a5cfa86	0.0008429665
13	0xbe0da435	-0.13832171
14	0xbd88c56d	-0.06678281
15	0xbe09cff7	-0.13458239
16	0xbd8e2f95	-0.06942669
17	0xbde9c60f	-0.1141473
18	0xbe66a5a5	-0.22524126
19	0xbe4efbe8	-0.20213282
20	0xbc1b17f3	-0.009466159
21	0xbe22dec2	-0.15905288
22	0xbdfadcdb	-0.12249156
23	0xbe42d63a	-0.19027033
24	0xbd5ea327	-0.054354813
25	0xbe1f82af	-0.15577196
26	0xbe23a69b	-0.15981524
27	0x3da66b74	0.08125964
28	0x3db4e014	0.08831802
29	0x3da4e159	0.08050794
30	0x3e0b1633	0.13582687
31	0x3c9d356a	0.019190509
32	0x3d8f6ec8	0.07003552
33	0x3dc5f732	0.096662894
34	0xbdaeb6b8	-0.085309446
35	0x3df62c4c	0.12020168
36	0x3d897e60	0.06713557
37	0xbbbfdc20	-0.0058550984
38	0xbd04cc8a	-0.032421626
39	0xbdce017f	-0.10058879
40	0x3d5a57ca	0.05330638
41	0x3dc8441e	0.09778617
42	0x3dd910d4	0.10598913
43	0x3ced023c	0.02893173
44	0x3d5f1cc5	0.054470796
45	0x3dce81f1	0.10083378
46	0x3c82b511	0.01595548
47	0xbd7a8071	-0.061157648
48	0xbd518aff	-0.051157948
49	0x3db84894	0.08998218
50	0x3d89721d	0.067112185
51	0x3e1b2e43	0.15154366
52	0xbbecc503	-0.007225634
53	0x3d91f62e	0.07127033
54	0xbd0ed929	-0.03487507
55	0xbcd69cef	-0.026197879
56	0x3d7bec8a	0.061504878
57	0xbdc5e408	-0.09662634
58	0x3d8e6b52	0.069540635
59	0x3d48cf2a	0.049025692
60	0xbd804ce9	-0.062646694
61	0x3d452891	0.04813439
62	0xbcd93383	-0.02651382
63	0xbda11d44	-0.0786691
64	0xbdc787e4	-0.09742716
65	0xbe1ed8a9	-0.15512337
66	0xbd615dde	-0.05502116
67	0x3cf4db11	0.029889615
68	0xbd0a597d	-0.03377675
69	0xbda3f36c	-0.080054134
70	0x3adc95c7	0.0016829305
71	0xb918ff9c	-0.00014591072
72	0xbd4c4979	-0.049874756
73	0xbd7a89ee	-0.061166696
74	0xbd123210	-0.035692275
75	0xbd33e152	-0.043916054
76	0x3d1d0548	0.038335115
77	0x3dc8dbd7	0.09807556
78	0xbcb2cd59	-0.021826433
79	0x3d423889	0.047417197
80	0x3d1a23a1	0.037631635
81	0x3c82442e	0.015901651
82	0x3d095e17	0.033536997
83	0x3de2af9c	0.11068651
84	0x3e1d12d6	0.15339217
85	0x3dbdb582	0.092631355
86	0xbd776dbc	-0.060407385
87	0x3d62889b	0.05530606
88	0xbdf2510d	-0.118318655
89	0xbc6620b4	-0.014045883
90	0xbc8a842d	-0.01690873
91	0xbd01467b	-0.031561356
92	0xbe20936d	-0.15681238
93	0xbd31f205	-0.0434437
94	0x3c345483	0.011006477
95	0x3dac6e41	0.08419467
96	0xbc124493	-0.008927482
97	0x3dd23606	0.102642104
98	0x3d1d8415	0.03845604
99	0xbe0beac8	-0.1366378
100	0xbd2454cc	-0.04011993
101	0x3db6eec0	0.08932257
102	0xbd428283	-0.047487747
103	0x3dcc2475	0.09967891
104	0x3d906ca8	0.070519745
105	0xbd5eb8b9	-0.054375384
106	0xbd4153aa	-0.04719893
107	0x3e4ba3b8	0.19886672
108	0xbc66f601	-0.014096738
109	0xbd9d9093	-0.07693591
110	0xbcce8443	-0.025209552
111	0x3bc8c8c2	0.006127448
112	0x3c59e103	0.013298276
113	0xbd0e4a22	-0.034738667
114	0xbb723521	-0.0036957937
115	0xbdf071cd	-0.11740456
116	0xbd8d2d6b	-0.068934284
117	0xbe5f0f8b	-0.21783273
118	0xbdaf7b82	-0.08568479
119	0x3cd69861	0.026195707
120	0xbdb77c9e	-0.08959316
121	0x3d0a16da	0.0337132
122	0x3c897646	0.01678003
123	0xbe1f103a	-0.15533534
124	0xbd38d989	-0.045129333
125	0xbda4e099	-0.08050651
126	0x3e6d6fe5	0.23187216
127	0xbd28fafe	-0.04125499
128	0xbd97305e	-0.07382272
129	0x3e0c7803	0.13717656
130	0xbe027bb3	-0.127425
131	0xbe4f129a	-0.2022194
132	0xbb841ba3	-0.004031615
133	0xbdf2f528	-0.11863166
134	0xbd854c05	-0.0650864
135	0xbde82613	-0.11335387
136	0xbd9f26af	-0.0777105
137	0xbe1738a3	-0.14767699
138	0xbe0152a7	-0.12629186
139	0xbe615fc8	-0.22009194
140	0x3ca1f8be	0.01977193
141	0x3c95380d	0.018215204
142	0xbd99a164	-0.07501486
143	0x3e8063bf	0.250761
144	0xbcca2365	-0.02467508
145	0x3dbf469f	0.09339642
146	0xbc38fa4c	-0.011290144
147	0x3d74f11a	0.059800245
148	0x3dc43ff1	0.09582508
149	0xbd36ba66	-0.044611357
150	0xbcd1e88d	-0.025623584
151	0x3d62780a	0.05529026
152	0xbdb8d1ea	-0.09024413
153	0x3d10389c	0.035210237
154	0xbd9b27b0	-0.07575929
155	0x3db2490f	0.08705341
156	0xbdba9aa1	-0.091115244
157	0xbd24107a	-0.040054776
158	0x3db6821f	0.089115374
159	0xbd77a70a	-0.060462035
160	0x3de52e4e	0.111904725
161	0x3de4dbba	0.11174722
162	0x3d9cc719	0.07655162
163	0xbdf28c9c	-0.11843225
164	0xbb253af8	-0.002521215
165	0xbcce2a57	-0.025166674
166	0x3c7beee3	0.015376779
167	0xbda4c7d0	-0.08045924
168	0x3cf92f69	0.030418115
169	0xbcbd5fee	-0.023117032
170	0xbd78ca75	-0.060739953
171	0xbd527e0b	-0.051389735
172	0xbe4cae73	-0.19988422
173	0xbe3206fa	-0.17385474
174	0x3e120cee	0.14262745
175	0xbd5f98b6	-0.054588996
176	0x3cf5eaf4	0.030019261
177	0x3dcebb9e	0.10094379
178	0x3c1e801c	0.009674098
179	0x3dd5e329	0.10443718
180	0xbdfd869d	-0.12379191
181	0x3d779092	0.060440607
182	0xbe0a91c4	-0.13532168
183	0x3c32fcf5	0.0109245675
184	0xbd0b7bbf	-0.03405356
185	0x3cd15522	0.02555329
186	0x3d397b7f	0.04528379
187	0xbd88757c	-0.06663033
188	0x3d3df88d	0.046379615
189	0x3d071277	0.032976594
190	0xbcad2b9a	-0.021138955
191	0x3d8afa7f	0.067860596
192	0x3e093f31	0.13403012
193	0x3e4cde63	0.20006709
194	0xbd056643	-0.032568227
195	0x3e396dd6	0.18108305
196	0x3e56c398	0.2097305
197	0x3e3c4fe4	0.18389851
198	0x3c744694	0.014909405
199	0xbd22bc7a	-0.039730527
200	0x3e0a689d	0.1351647
201	0x3e0fa2e4	0.14026982
202	0x3d592ee8	0.05302325
203	0x3dbe5f7f	0.09295558
204	0x3d2857ce	0.041099362
205	0x3e1929e6	0.14957389
206	0x3e477d02	0.1948128
207	0xbb95f516	-0.0045763357
208	0xbd994ec4	-0.074857265
209	0xbdcbc83e	-0.099503025
210	0xbd73a5fa	-0.05948446
211	0x3d1036fd	0.03520869
212	0x3c91866a	0.017764289
213	0xbdda4c5f	-0.10659098
214	0xbd092784	-0.03348495
215	0xbdc783d0	-0.09741938
216	0xbdf0ad06	-0.117517516
217	0x3d4fece3	0.050763022
218	0xbe15f9f8	-0.14646137
219	0x3c3c2613	0.011483687
220	0xbda5043c	-0.08057448
221	0xbdaf5091	-0.08560289
222	0xbceb7d09	-0.028746145
223	0x3ce9a07c	0.028518908
224	0xbcf2b38b	-0.029626628
225	0xbd567f46	-0.05236747
226	0xbd357fb6	-0.044311248
227	0xbe0f3f5e	-0.13989016
228	0xbe8c8593	-0.2744566
229	0xbe473cfb	-0.19456856
230	0xbe9b5de7	-0.3034508
231	0xbe0df653	-0.13863496
232	0xbda20ddc	-0.079128
233	0xbd51561b	-0.051107507
234	0x3dc16ba7	0.09444361
235	0x3d41d14e	0.04731875
236	0xbd963870	-0.07334983
237	0xbd8762f6	-0.06610672
238	0x3da302c3	0.07959511
239	0x3c2bea40	0.010492861
240	0x3cf3f24c	0.029778622
241	0xbd61d2e4	-0.05513276
242	0xbc529c00	-0.012854576
243	0xbd5b0768	-0.05347386
244	0xbdb87d24	-0.09008244
245	0x3db09e7d	0.08623979
246	0x3be96a4e	0.007123268
247	0xbd78a5a8	-0.060704857
248	0xbcb278a8	-0.021786049
249	0xbcdf967c	-0.027293436
250	0x3d792ae9	0.060831938
251	0x3c978a65	0.018498609
252	0x3d99919e	0.074984774
253	0xbdeae0ab	-0.11468633
254	0xbdc447a4	-0.09583977
255	0xbda8c1a4	-0.08240059

block_2.2.bias f4 [10]
0	0x3db2b2be	0.087254986
1	0x3da98293	0.08276858
2	0x3df9d60b	0.121990286
3	0x3bfa4372	0.0076374346
4	0x3d79a810	0.060951293
5	0xbd0568cf	-0.032570656
6	0x3e151716	0.14559588
7	0xbde95994	-0.11394039
8	0xbdf6f97c	-0.12059304
9	0x3d8fc40a	0.07019813

classifier.1.weight f4 [2, 2560]
0	0xbd052f4f	-0.03251582
1	0xbd55478a	-0.052070178
2	0x3ba8e2dd	0.0051539973
3	0x3ce1a385	0.027543793
4	0x3a26db75	0.0006365099
5	0xbd1adc29	-0.037807617
6	0xbda0e0e8	-0.078553975
7	0xbdc36434	-0.095405966
8	0xbd904368	-0.07044107
9	0xbd78a720	-0.060706258
10	0xbd101eec	-0.03518574
11	0xbac276fd	-0.0014836487
12	0xbd1df11b	-0.038560014
13	0xbc91e520	-0.01780945
14	0x3ba1a1cf	0.004932619
15	0x3cf79a17	0.030224843
16	0x3cc031cb	0.023461243
17	0xbcc36e1f	-0.02385622
18	0x3bd34aaa	0.0064481096
19	0xbc2dc4f3	-0.010606038
20	0xbd301f7a	-0.04299877
21	0xbc11a643	-0.008889738
22	0xbd1f7366	-0.038928412
23	0xbd8c7e22	-0.068599954
24	0xbcbdb082	-0.023155455
25	0xbc0a7147	-0.008449859
26	0xbcc7ad69	-0.02437468
27	0x3ba47942	0.005019338
28	0xbafcba80	-0.0019281656
29	0x3b831439	0.0040002135
30	0x3d0da67d	0.034582604
31	0x3cfc45ed	0.030795062
32	0x3d207c64	0.03918113
33	0xbc536a54	-0.012903769
34	0x3b69fc03	0.003570319
35	0xbba3c5a0	-0.004997924
36	0xbcf79cfb	-0.030226221
37	0xbcebdcf8	-0.02879189
38	0xbce521c2	-0.027970199
39	0xbd0820f8	-0.033234566
40	0xb9220985	-0.0001545307
41	0xbaf820cb	-0.0018930672
42	0xbb8ae76e	-0.0042390143
43	0xbb617a6b	-0.0034405242
44	0x3c89e8a3	0.016834563
45	0x3d68e62f	0.056860145
46	0x3cb3fa7e	0.02197003
47	0x3d1fba89	0.038996253
48	0x3ce25cf7	0.02763222
49	0x3beb09e2	0.007172809
50	0xbaadaef7	-0.0013250996
51	0xbb7b6375	-0.0038358842
52	0xbd3c5d5f	-0.045987483
53	0xba1cd56d	-0.00059827307
54	0xbc897226	-0.016778063
55	0x3ca8c5ac	0.02060207
56	0x3d35a8d3	0.044350456
57	0x3cc649f5	0.024205187
58	0x3c57e1ac	0.013176363
59	0x3cdfd67b	0.027323952
60	0x3d492c54	0.04911454
61	0x3d45132f	0.048113998
62	0x3bfd8bd2	0.007737615
63	0x3d5f2b5d	0.054484714
64	0x3c472c2c	0.0121565275
65	0x3aee4067	0.0018177152
66	0xbc34d0cc	-0.011036109
67	0xbd536d80	-0.0516181
68	0xbcf7dc2a	-0.03025635
69	0xbcb70858	-0.022342846
70	0xbceb8ab1	-0.028752657
71	0x3ba99b8a	0.0051760124
72	0x3d245992	0.040124483
73	0x3a142edf	0.0005652736
74	0xbcd22327	-0.025651528
75	0xbc986aa3	-0.018605536
76	0x3d06ed08	0.032940894
77	0x3c8ea155	0.017410913
78	0xbc16fd3a	-0.009215647
79	0x3d3b6b4b	0.04575662
80	0x3cc7db23	0.024396485
81	0xbc5216cf	-0.012822821
82	0xbd5768be	-0.052590124
83	0xbd294e49	-0.041334424
84	0xbd40a5e4	-0.047033206
85	0xbc134283	-0.008988026
86	0x3bdf1b84	0.0068087
87	0xbbaca966	-0.0052692173
88	0x3b4d2d36	0.0031307465
89	0xbcaf45e9	-0.02139564
90	0xbd2a0057	-0.04150423
91	0xbba16766	-0.004925656
92	0x3b73932f	0.0037166586
93	0x3ce83767	0.02834673
94	0x3c8aad04	0.016928203
95	0x3d7534a4	0.059864655
96	0x3c910283	0.017701393
97	0xbc685249	-0.014179775
98	0xbb865a51	-0.004100122
99	0xbd02c7b4	-0.031928733
100	0xbc94bd86	-0.018156778
101	0x3c9125b2	0.01771817
102	0xbc9db262	-0.019250099
103	0xbcac9ba5	-0.02107031
104	0xbd8ffc6c	-0.070305675
105	0xbca4b97a	-0.020107973
106	0xbccccd7d	-0.025000328
107	0x3bd19a5b	0.0063965744
108	0x3cb2ac98	0.021810815
109	0xbbbb3003	-0.0057125106
110	0xbc13e461	-0.009026618
111	0x3d0d4682	0.03449107
112	0x3d59d8fd	0.05318545
113	0x3b98bb25	0.0046609812
114	0xbce60f94	-0.0280836
115	0xbc9c6187	-0.019089473
116	0x3b96056e	0.004578284
117	0x3c85bd95	0.016325751
118	0x3c9ef6e3	0.019404834
119	0xbd74cb5a	-0.059764244
120	0xbd8f0ef2	-0.069852725
121	0xbc888e3f	-0.01666939
122	0xbc04bd60	-0.008101791
123	0x3c994c9e	0.018713292
124	0x3a06166d	0.0005115036
125	0xbce015ce	-0.027354147
126	0xbd2566a4	-0.04038109
127	0x3c0633fa	0.008191103
128	0xbb728ecc	-0.0037011383
129	0xbc9d4f97	-0.01920299
130	0xbd09e396	-0.03366431
131	0xbcdc42d5	-0.026887337
132	0xbcb8bb68	-0.0225503
133	0x3b9f323d	0.004858284
134	0xbc6c9e24	-0.014442001
135	0xbc9f3f43	-0.019439345
136	0xbd4c18ae	-0.049828224
137	0xbcb20098	-0.021728799
138	0xbc6b4aa9	-0.014361062
139	0xbc8af866	-0.016964149
140	0xbd728331	-0.059207145
141	0xbd1fafeb	-0.038986128
142	0xbcd3cbcb	-0.025854012
143	0xbc6798dc	-0.014135566
144	0xbc8dd940	-0.017315507
145	0xbd6e2fce	-0.05815106
146	0xbd056faf	-0.032577213
147	0xbd6bfb7d	-0.057612885
148	0xbd00e3f2	-0.031467386
149	0xbcf9ccb7	-0.030493123
150	0x3baf9f0e	0.005359537
151	0x3ce6591d	0.028118664
152	0xbc89232b	-0.016740402
153	0xbcdf150c	-0.027231716
154	0xbd2fab4a	-0.042887963
155	0xbc8f4497	-0.01748876
156	0xbd1be1b9	-0.038057063
157	0xbd64ee63	-0.055891406
158	0xbc3f97e7	-0.011693931
159	0x3c92bb3f	0.017911552
160	0x3cc2adc9	0.023764508
161	0xbc9d84f3	-0.019228434
162	0xbcc0744d	-0.023492957
163	0xbd0252ee	-0.03181737
164	0xbcb30fde	-0.021858152
165	0xbd339ef1	-0.04385275
166	0xbc708380	-0.01467979
167	0xbc08aa3c	-0.008341368
168	0x3bf12563	0.007359193
169	0xbd34969b	-0.04408894
170	0xbd6d2161	-0.05789316
171	0x3d1ca8d3	0.03824694
172	0x3ca7442a	0.020418245
173	0x3d0b2bd1	0.033977333
174	0x3ca85592	0.020548616
175	0x3d65161f	0.0559293
176	0x3c0d9c8a	0.008643279
177	0x3b2ec4c5	0.0026667577
178	0xbd20550a	-0.0391436
179	0xbcc5a479	-0.024126278
180	0xbd746dad	-0.059674907
181	0xbbc7c425	-0.0060963803
182	0xbd25a079	-0.04043624
183	0xbb92483f	-0.004464179
184	0xbce8bbf9	-0.028409945
185	0xbdbb42ae	-0.091435775
186	0xbd8e59e5	-0.0695074
187	0xbcd60c29	-0.026128845
188	0x3d029455	0.03187974
189	0x3c8f6863	0.01750583
190	0x3d17411f	0.03692734
191	0x3df8a0c2	0.12140037
192	0x3c10ed3c	0.008845624
193	0xbceb527b	-0.028725853
194	0xbd9ff9b9	-0.07811303
195	0xbd30a659	-0.04312739
196	0xbd4fb6a6	-0.050711296
197	0xbc9dff6f	-0.01928684
198	0xbcb5f5e2	-0.022211973
199	0xbcf93b44	-0.030423768
200	0xbd927633	-0.07151451
201	0xbdb1c1be	-0.086795315
202	0xbd59e93d	-0.05320095
203	0xbc606020	-0.013694793
204	0x3c37a877	0.011209599
205	0x3b293c30	0.0025823228
206	0x3d1b24dd	0.037876952
207	0x3daf01f0	0.085452914
208	0x3cbc0d00	0.022955418
209	0xbd37b5f8	-0.044851273
210	0xbda2fe99	-0.07958717
211	0xbd92370f	-0.07139408
212	0xbd49f45b	-0.0493053
213	0x3987bf3c	0.00025891687
214	0xbcd7f52d	-0.026362026
215	0xbd88b1aa	-0.06674512
216	0xbdc0150b	-0.09379014
217	0xbd628ed8	-0.055312008
218	0xbcef4ea1	-0.029212298
219	0x3c2f0c88	0.01068414
220	0x3d825ff4	0.06365958
221	0x3cc048a2	0.023472134
222	0x3d40da3c	0.047083125
223	0x3db0d83e	0.08634995
224	0xbd06518b	-0.03279261
225	0xbd8f60f7	-0.070009165
226	0xbd670ecb	-0.056410592
227	0xbd8fe409	-0.07025916
228	0xbd8e619e	-0.06952213
229	0xbd1e9847	-0.03871944
230	0xbc90ec89	-0.017690914
231	0xbd8ed410	-0.069740415
232	0xbd818e90	-0.0632602
233	0xbd585a95	-0.05282076
234	0xbd22850f	-0.039677676
235	0xbc15fec0	-0.009154975
236	0xbc4f78f9	-0.0126631195
237	0xbd3337bc	-0.043754324
238	0xbcb9bd5b	-0.0226733
239	0x3d6d069e	0.05786764
240	0xbd4c1c91	-0.04983193
241	0xbdae07cb	-0.0849758
242	0xbda39ac6	-0.07988505
243	0xbdf0c3ab	-0.11756071
244	0xbd8ffb61	-0.070303686
245	0xbd1f4dfd	-0.038892735
246	0xbdac5f15	-0.08416573
247	0xbdd13382	-0.102149025
248	0xbd98fc40	-0.07469988
249	0xbdf9ebcf	-0.1220318
250	0xbda234be	-0.07920216
251	0xbd9b2004	-0.07574466
252	0xbda58c79	-0.08083434
253	0xbddbbe8b	-0.107297026
254	0xbdc3109c	-0.09524652
255	0x3c19d5d5	0.00938936

classifier.1.bias f4 [2]
0	0xbd3f1d9d	-0.0466591
1	0x3d150d9f	0.036389943
