chapter_1/PyTorch/PyTorch_SimpleNN/checkpoint.pth (torch, 2026 bytes, 2 tensors)

fc1.weight f4 [5, 10]
00000000: e809 60be 2818 913d 2981 89be dcc7 75be
00000010: 90a4 bdbc fb2c 933e cd65 9a3e f42b 863d
00000020: 34ef 87bd 9cbc 9fbe 4562 81be c9a3 973e
00000030: 69f9 12be 301b fabd 43e6 82be f182 923e
00000040: 62ca 97be aa04 c7bd 0083 80bd 463b 743e
00000050: 1518 863e bc79 97be 8eac 793e d870 b33d
00000060: 01b0 963e 804b e0bc f8f9 4fbd e48b 83be
00000070: 21cc 8c3e 98a6 0fbd 5046 58bd 360e 623e
00000080: 28f8 203e 4613 673e 667c 85be 18f7 66bd
00000090: 8052 26bc 5873 343e b0df 3b3d e41f ad3d
000000a0: 1610 3f3e 7efe 7e3e c043 07be 57a2 873e
000000b0: 88a9 dc3d 504d 233d 2edb 0bbe d4c2 c0bd
000000c0: 22fb 313e eef8 8dbd
-0.21878779 0.070846856 -0.26856354 -0.24002022 -0.023149759 0.28745255 0.30155793 0.06551352
-0.06637421 -0.31198585 -0.25270286 0.29617146 -0.14352955 -0.12212217 -0.255663 0.28615525
-0.29646593 -0.097176865 -0.06274986 0.23850736 0.26190248 -0.29585063 0.2438223 0.087617576
0.29431155 -0.027379751 -0.0507755 -0.25692666 0.27499488 -0.035070986 -0.05280143 0.22075734
0.15719664 0.22565946 -0.2607147 -0.05638799 -0.0101515055 0.17622125 0.045867622 0.08453348
0.1865848 0.24901769 -0.13209438 0.26491043 0.10774523 0.039868653 -0.13657829 -0.094121605
0.17380956 -0.06932245

fc1.bias f4 [5]
00000000: c0b3 bebb bc36 e3bd 8ebe 02be 4694 6bbe
00000010: 049b d43d
-0.0058197677 -0.11094424 -0.12768003 -0.2300578 0.103811294
